weights/SomnoNet_shhs1_49k.pth (torch, 241862 bytes, 105 tensors)

conv_res0.conv0.0.weight f4 [16, 1, 3]
00000000: a4c0 623e be1e a83e 3483 fbbe 8901 a83e
00000010: f4b1 ff3e f471 f7bc daf0 233f bc86 3e3d
00000020: d4e1 a03d ee98 03bf 36a3 5b3e 64f4 8b3d
00000030: a22d 07bd d860 c63d 7185 5fbf ce7b 1a3e
00000040: ef75 e23d 3f6f a5be 9f23 db3c 6568 913e
00000050: 9420 f1be a6cf 133f 29fb e83e 8255 793e
00000060: e3d6 93be 967b 98bd 6d6b b93e 16c6 84bf
00000070: b607 2d3d 3dbf 15bd ae1c 1a3f 7f4b 633e
00000080: 388f dd3d 8943 a5be 200d 9b3e 8ff4 8c3e
00000090: 0a56 ac3d 8fc9 73be 20f9 4e3f b7e1 15bf
000000a0: 89c4 103f aefd 40ba 7cf0 c13e 8295 98be
000000b0: d6ac 9dbe 39ee d53e 92f1 61bd 7998 e23e
0.22143799 0.32835954 -0.49123538 0.3281367 0.49940455 -0.030205704 0.64039385 0.04651521
0.07855573 -0.5140523 0.21448979 0.06833723 -0.033002503 0.0968644 -0.8731299 0.1508629
0.1105765 -0.32311437 0.026750384 0.2839996 -0.47095168 0.5773872 0.4550412 0.24349025
-0.28874883 -0.07445447 0.36214772 -1.0372951 0.04224368 -0.036559332 0.6020001 0.22196768
0.108183324 -0.32278088 0.3028345 0.27530333 0.08414848 -0.23807357 0.80848885 -0.5854754
0.5654989 -0.000736202 0.37878788 -0.29801565 -0.30795926 0.41783312 -0.05516202 0.44256952

conv_res0.conv0.1.weight f4 [16]
00000000: d235 a23f ae2b 073f bc07 973f 3508 653f
00000010: 1205 4a3f 9e1e b73f a86c 523f e227 4d3f
00000020: 2c69 bd3f 8fac 713f aafc 4b3f c102 5e3f
00000030: 5fe0 3e3f 0d4c 923f f128 753f 5ab1 1d3f
1.2672675 0.52801025 1.1799235 0.8946565 0.78913987 1.4306219 0.82197046 0.8013898
1.4797721 0.9440393 0.7968241 0.8672295 0.74561113 1.1429459 0.95765597 0.6159874

conv_res0.conv0.1.bias f4 [16]
00000000: 94f9 edbd 557d 3c3f dd13 4fbf 7415 8f3f
00000010: e6c4 61be d0e7 3a3e d834 323f 909c 1b3f
00000020: b672 323e 980c f4be 7619 b13e 43f2 f7be
00000030: c751 9e3d 9bb6 64bd 3344 b5be eff5 673f
-0.11619869 0.7362874 -0.80889684 1.1178422 -0.22047767 0.18252492 0.69611883 0.6078577
0.17426571 -0.47665858 0.34589738 -0.4842702 0.077304415 -0.05583821 -0.35403594 0.9060964

conv_res0.conv0.1.running_mean f4 [16]
00000000: 2711 f53b 0402 cc3d d757 c33d 92c9 e9bc
00000010: 588d d0bd ae7a fcbb 1172 9ebc f812 233e
00000020: d471 2cb9 0e5c 04be 5c6e ee3d 9bc3 003d
00000030: 49b2 a53d 61ae e6ba 04e7 eabc dd4b cd3d
0.0074788514 0.09961322 0.095382385 -0.028538499 -0.10183209 -0.0077050542 -0.0193415 0.15925205
-0.00016445603 -0.12925741 0.11642143 0.031436544 0.08090646 -0.0017599576 -0.02867461 0.100242354

conv_res0.conv0.1.running_var f4 [16]
00000000: 3312 9942 696a e943 767f d443 3b10 a242
00000010: a7a7 0244 3b37 f941 2a02 5e42 6985 8b44
00000020: e80f 5042 afd9 4e44 19a9 1844 e932 c242
00000030: 45bd ae43 4213 9d42 e91c cd42 456b d543
76.535545 466.83133 424.9958 81.0317 522.61957 31.151968 55.502113 1116.1691
52.015533 827.4013 610.64215 97.099434 349.47867 78.53761 102.556465 426.83804

conv_res0.conv0.3.weight f4 [16, 16, 3]
00000000: cccd 103d 828d 4bbe e35e 0e3d bbdf a7bd
00000010: 3431 403c 102f 0ebe 5a2f bf3e a0db b63d
00000020: 90c6 803e 67ab c73e c4d5 073d 7903 aa3e
00000030: 3de8 0bbf fa18 243e f237 743e 5a9d 123d
00000040: d261 2abe 4b65 30be 845b 943d 4c82 a0bd
00000050: 21aa b33d b94d b4bb 196b 90ba a69f 88be
00000060: 0042 113e ae49 b7bd 328f 3fbc 80d3 7fbe
00000070: 5d67 623d baba afbe e874 173e cd8e c9bd
00000080: be57 91be 8198 39bc 8e77 5a3e 7b0a 7e3e
00000090: 8b31 6fbe 4bb3 943c 0369 dd3d 0fd4 a73e
000000a0: e8a6 45bd babd 8ebe 32aa 003d f77f ec3d
000000b0: 7aa6 983e 2f23 24be 9320 40be 72eb 9bbe
000000c0: 1553 95be a99f 83be f5be 29be 160d 003e
000000d0: 5899 33bd 4b60 abbd 3d72 023e c36b f33e
000000e0: 7a52 143f fbf7 c53d 3f08 823e 3902 5f3e
000000f0: 2460 d2bd 5f40 97bd eecf 08bd d883 0bbe
00000100: fe92 32be 5bfb 52bc 61cf 403e 2391 0c3e
00000110: 4682 16bd ad31 85bd 61cd a3be 7db4 d9bd
00000120: c116 c63c 604f 4abe 83a0 3abd 67eb bdbe
00000130: faea 3bbe 534d a1bc fbc6 4dbd adb9 86be
00000140: 9a1f 89be f800 cc3e 3b91 023e a372 473d
00000150: 9dd9 35be f4c2 96ba 5286 debd 4a15 f1bd
00000160: 8b8e 51be c2f0 a8bd f24b e23c 0a88 9a3e
00000170: 87b1 343d f1df 52bd eaaf 353d 819c 963d
00000180: 444f 943e c0ae 933d fd77 763c be6b 29be
00000190: 23e4 83bd c6af 15be 642b a13e 3189 cc3d
000001a0: 743b b03e f080 083f 4fe9 d3bc 2de8 863d
000001b0: 18f0 9ebe 0e2e ea3d b6ae 09be dd63 73bc
000001c0: aae9 5a3d ec7c 933e 9f7a 5bbd 9750 75be
000001d0: 3734 6b3e 62b7 31be 7f43 94bd 38db e6bc
000001e0: 475b 6b3e f3ed 273e b8a1 853c 0a19 0ebe
000001f0: c644 f13d 9e85 fcbe 1c74 f7bd 4df9 893d
00000200: 5a34 55be 079a 65be d9ce 80bd b3ee 5f3e
00000210: 8ab8 b0be ec1e 22be 47f6 413c e5d3 50bc
00000220: 223c 0f3d 2659 1c3d d77f 9f3c 6ee8 66be
00000230: 5364 0b3d edaa 8abe 9886 ff3d 824b b4be
00000240: 1649 193b 9ca5 b2bd 8f92 6e3e 1162 813d
00000250: b0a2 6dbe 9fb9 21be 8c9a a43e 6022 a63e
00000260: 0957 d73e 68ba 673e fab2 a73e dedd c83e
00000270: e6df bbbe 7e28 87bd bb4e ddbe d66e a0bc
00000280: 48b8 dbbd 148c 283e ff69 853c 6937 283e
00000290: 42d3 053e c521 af3d c19b febd 7814 67be
000002a0: cd8a 883d a874 50be 9f22 aebc 5a6e e33d
000002b0: def2 1a3e 887b f5be 9c42 e7bc 462d 02be
000002c0: 043a 54be 7dee deb9 46f6 be3d 66ae 943e
000002d0: 2bb1 28be 674c 95be 1f4b 10be a34d 99bd
000002e0: 708c b6bd 5f03 16be 7cfe 023e 020b c0bd
000002f0: 0971 8bbd 0fdc 59be ca5f 70bd 6d09 78bd
00000300: 52a0 95bc 59f1 61be d3bf c4bd 60db 803d
00000310: 337e 3f3c f148 8fbd b13c 113f b357 223e
00000320: 76ae 053f d940 b73e c072 f53d 401c 993e
00000330: e079 6ebe a2fe 0ebc e272 153d 32a5 98bb
00000340: d2ff d8bd febe 98bd 92aa fd3d d774 cfbd
00000350: 5228 973d 9e77 ff3c b57b 45be 350a 85be
00000360: b86a fd3e 5e8b f8bd 55aa 67bd d77d 7bbe
00000370: f3dc f7bc 6f6e 97be e26c 893d 682f 4bbd
00000380: ffe0 5fbe 7399 7cbe c09a 9cbc e5c8 4d3d
00000390: 99a0 f0bd f414 77bd bf13 37bb eae6 98bd
000003a0: e102 c1be 8a76 81bd 3b14 3dbe d786 423e
000003b0: b374 5f3e 86b8 b2bd 79b3 d23d 4467 0ebd
000003c0: 85f3 b63e 0a52 45be ff04 5fbe 2f9b 323d
000003d0: 9879 b4bd 687c 07be e6f1 c43e a573 eb3e
000003e0: 11b7 4d3e 03c5 5b3e 4352 9d3d 7793 103a
000003f0: 08e4 4cbd f6c3 1fbe 261b 34be ba94 b5be
0.035352513 -0.198782 0.03475846 -0.0819697 0.011730481 -0.1388514 0.37340814 0.08928609
0.2515149 0.38997957 0.033162847 0.33205774 -0.5465124 0.16025153 0.23849466 0.035794593
-0.16638878 -0.1722614 0.07244018 -0.07837352 0.08772684 -0.0055024293 -0.0011018246 -0.26684302
0.14185333 -0.089496 -0.011691855 -0.24983025 0.055274356 -0.3432215 0.1479069 -0.0984169
-0.28387254 -0.011327864 0.21334669 0.24808685 -0.23358743 0.0181519 0.10811045 0.32778975
-0.048254877 -0.27879125 0.03141231 0.11547845 0.29814512 -0.16029046 -0.18762426 -0.30453068
-0.2916495 -0.2570775 -0.1657675 0.12504992 -0.043847412 -0.08367976 0.12738891 0.47543153
0.5793835 0.09666439 0.25396916 0.21778192 -0.102722436 -0.07385325 -0.033401422 -0.13624513
-0.17438886 -0.012877311 0.18829109 0.1372724 -0.036745332 -0.065036155 -0.3199263 -0.106301285
0.024180772 -0.19756842 -0.045563232 -0.3709366 -0.18351355 -0.019690191 -0.05023859 -0.26313534
-0.26781923 0.3984449 0.12750714 0.04869331 -0.17758794 -0.0011502192 -0.10865463 -0.11771639
-0.20464532 -0.08249046 0.027624104 0.30181915 0.044114616 -0.0514831 0.044357218 0.073540695
0.28966725 0.07211065 0.015043256 -0.16545007 -0.06439998 -0.14617833 0.31478417 0.09987105
0.3442036 0.53321743 -0.025868086 0.06587253 -0.31042552 0.114345655 -0.13445553 -0.014855352
0.053445496 0.28806245 -0.053583737 -0.23956524 0.22969137 -0.17355111 -0.07239436 -0.028180704
0.22984038 0.16399364 0.016312465 -0.13876739 0.117806956 -0.49320692 -0.12082693 0.067370035
-0.20820752 -0.22422038 -0.06289453 0.218684 -0.34515792 -0.15832108 0.011838502 -0.012745832
0.034969456 0.038170956 0.019470138 -0.22549602 0.034031224 -0.2708353 0.124768436 -0.35213858
0.002338951 -0.08722994 0.23298095 0.06317533 -0.23206592 -0.15793465 0.3214916 0.324481
0.4205859 0.22629702 0.32753736 0.3923177 -0.36694258 -0.0659952 -0.4322413 -0.0195841
-0.10728508 0.16459686 0.016285894 0.16427387 0.1306887 0.08551363 -0.124320515 -0.22566402
0.06667099 -0.20357001 -0.021256743 0.11105032 0.15131709 -0.4794581 -0.028230004 -0.12712583
-0.20725256 -0.00042520827 0.09324317 0.29039305 -0.16473834 -0.29159853 -0.14091156 -0.07485511
-0.08913505 -0.14649723 0.1279239 -0.093770996 -0.06808669 -0.21275352 -0.0586851 -0.060555864
-0.018264923 -0.22064723 -0.096069 0.062918425 0.011687803 -0.06996334 0.5673323 0.15853767
0.5221933 0.35791662 0.119847775 0.29904366 -0.23288679 -0.008727701 0.036486514 -0.0046583647
-0.10595669 -0.07458304 0.12386049 -0.10129707 0.07380737 0.031184968 -0.19285472 -0.2598435
0.49495482 -0.12135957 -0.056558926 -0.24559723 -0.030256724 -0.29576442 0.06710221 -0.049605757
-0.21863173 -0.24667911 -0.01911676 0.050240416 -0.117493816 -0.060322717 -0.0027935354 -0.07465918
-0.3769751 -0.06321438 -0.18464749 0.1899675 0.21821861 -0.08726601 0.10288138 -0.03476645
0.35732666 -0.19269577 -0.2177925 0.043605026 -0.08812255 -0.13231051 0.38465804 0.45986667
0.20089366 0.21461873 0.07681706 0.0005515138 -0.050022155 -0.15602097 -0.17588481 -0.35465032

conv_res0.conv0.4.weight f4 [16]
00000000: e537 0f40 5b8c 1e40 6868 0040 ecc7 2b40
00000010: 8eb6 7240 1f01 1840 27f8 5240 710b 2740
00000020: af23 0b40 ae63 0040 c402 0640 7b0e 3840
00000030: ff24 3040 fde8 4140 11b0 4240 771d 2340
2.2377865 2.4773166 2.0063725 2.6840773 3.7923923 2.3750684 3.296396 2.6100733
2.174053 2.006084 2.0939188 2.8758838 2.752258 3.0298455 3.0419962 2.5486734

conv_res0.conv0.4.bias f4 [16]
00000000: b890 dcbf 788c 07bf f9f2 4f3d 610b 0ac0
00000010: 5162 363c 4c2e 933f 63f3 933f e836 603f
00000020: b3e0 c3be d3e0 b8bd d452 0bbe 5778 1940
00000030: 067b 6ebd 8e06 47bf 6e8d 0c3f da8c 943e
-1.7231665 -0.52948713 0.050768826 -2.1569445 0.011131839 1.1498504 1.1558651 0.8758378
-0.3825737 -0.09027257 -0.13605815 2.39797 -0.058222793 -0.77744377 0.54903305 0.2901371

conv_res0.conv0.4.running_mean f4 [16]
00000000: d78a 4cbe 2d91 90bd 4f08 59be 6a1a 533e
00000010: 9706 f03e c932 e5be 5416 b2bf 320a b9be
00000020: 2c42 93be 2597 9bbf 2fb6 70bf 585c aabf
00000030: 46d9 21be f3f2 0fbf 8ecc fb3e acbe f6be
-0.19974838 -0.0705894 -0.21194576 0.20615545 0.46880028 -0.44765308 -1.3913064 -0.3614059
-0.28761423 -1.2155501 -0.9402799 -1.3309431 -0.1580554 -0.56230086 0.491795 -0.48192346

conv_res0.conv0.4.running_var f4 [16]
00000000: ccc3 043f 7747 e03e b0e2 2e3f e049 173f
00000010: 1c97 803e 1dfd 413e ce90 963e 738c be3e
00000020: 6800 403f a7f3 ff3e adc8 173f 95a1 a13e
00000030: f491 fe3e 84db 013f 12b1 ef3e 5057 d33e
0.5186126 0.43804523 0.6831465 0.590971 0.25115287 0.18944211 0.29407352 0.3721653
0.7500062 0.4999058 0.5929058 0.3156859 0.49720728 0.5072558 0.4681478 0.41277552

conv_res0.conv1.0.weight f4 [16, 1, 3]
00000000: 5b45 62bf e7ba a73d 2246 28be af09 043e
00000010: 20e6 ef3d 0efd 9bbe f86a 463e fd5e 093f
00000020: 6f38 d13e b541 753d 05f8 d63d 50fc 3abf
00000030: cdfe cebe c4df b73e a41e 903e acfd 2bbf
00000040: 928e e8be 6039 81bd 761d 4cbe 02c5 833e
00000050: ac83 dbbe 3273 e6be 6e1c cc3e f047 d93e
00000060: 238e a8bd de47 1b3f 2720 dfbd fa32 3a3e
00000070: 03ff 25bf e842 e93e 12b9 5cbf 74e6 813e
00000080: f538 2abe c664 d53e e3b5 90be 167c f73c
00000090: 1f89 93bd 0676 073f 773b 94be ee1d 253f
000000a0: e6ce fdbd 8e7b abbe bf70 a03f c0d1 733d
000000b0: af5c 62bd dc0f e8be 2e71 763e 4c16 953e
-0.8838708 0.08189946 -0.16433004 0.12894319 0.11713815 -0.30466503 0.19376743 0.53660566
0.40863368 0.059877116 0.10496525 -0.7304125 -0.40428773 0.35912907 0.28148377 -0.6718395
-0.45421273 -0.063097715 -0.19933113 0.25736243 -0.42873895 -0.45009762 0.3986544 0.42437696
-0.082302354 0.60656536 -0.108948044 0.18183509 -0.6484224 0.45558858 -0.86219895 0.25371134
-0.1662329 0.41678447 -0.2826377 0.030210536 -0.07203888 0.52914464 -0.28951618 0.64498794
-0.12392978 -0.33492702 1.2534407 0.059526205 -0.05526417 -0.453246 0.24066612 0.29118574

conv_res0.conv1.1.weight f4 [16]
00000000: 3302 5c3f 72e8 b33f b8b0 0f3f 147f 9d3f
00000010: ed70 993f dbe1 813f 12f9 ac3f 85b4 9e3f
00000020: b365 963f ad75 893f fe36 6d3f addb 623f
00000030: 0b03 6c3f 46d2 6c3f 1f0d 9b3f 5468 c43f
0.85940856 1.4055312 0.56129026 1.2304406 1.1987587 1.0147051 1.351351 1.239884
1.1749786 1.0739037 0.92662036 0.8861645 0.92192143 0.9250835 1.2113379 1.5344338

conv_res0.conv1.1.bias f4 [16]
00000000: c111 983f 5e3f 413e 2c49 533e a1f1 ebbe
00000010: 0304 9e3e 2471 d2be f36a bd3e 9597 1dbf
00000020: 998c a93e b5d4 4d3e a2da 53bf 2322 3f3e
00000030: af10 d33d f0b2 b03d 2a41 18bf d8b4 2c3d
1.1880418 0.18871829 0.20633382 -0.46082786 0.30862436 -0.41101944 0.36995658 -0.6155942
0.3311508 0.20100673 -0.8275548 0.18665366 0.103059165 0.086278796 -0.5947443 0.042164654

conv_res0.conv1.1.running_mean f4 [16]
00000000: 782d f5bd 6f7a dbbb e60b 113e 7944 8ebd
00000010: d730 f23c dec9 17be 192d 3abd 83c7 3d3d
00000020: bfec 543d 9dca 19bb 284d c4bd 849d a23c
00000030: 5e72 ab3c 8b9f bd3c 1bbe 1f3e 06e7 2a3c
-0.11971563 -0.006697945 0.14164695 -0.06946654 0.029564304 -0.148231 -0.045453165 0.046332847
0.05198359 -0.0023466714 -0.09585029 0.0198505 0.020928558 0.023147365 0.15599863 0.010431057

conv_res0.conv1.1.running_var f4 [16]
00000000: d977 2344 52aa 5942 683c 2d44 a052 aa43
00000010: eb8c 3643 d26d 4a44 adf7 1443 2da4 9243
00000020: 1cec 5643 8a9e 6c43 c90f 0444 7bbc d042
00000030: 529a 1343 6154 7f43 c86e 9a44 c3ad 1c43
653.8726 54.41633 692.94385 340.6455 182.55046 809.71594 148.96748 293.28262
214.9223 236.6193 528.24664 104.368126 147.60281 255.3296 1235.4619 156.67876

conv_res0.conv1.3.weight f4 [16, 16, 3]
00000000: e9cb a83e e2db 083e 5438 693e a4e1 ef3e
00000010: 7387 82bd 14b1 d13d dfda 5dbd d167 b93c
00000020: 070f c03d a5db e1be 31c4 6f3e e1de 273e
00000030: 44d7 31bd 56b7 9fbd 56d4 1b3e 6f79 08be
00000040: 96e6 3fbe 633f 12be 7867 103e afe4 3d3d
00000050: e575 3b3e 7951 a73d 821d 943e b267 7abd
00000060: 45ee 31be 7ce5 8cbe f478 2dbe cdcb 17be
00000070: f447 2cbe c3ee 00be 9d88 edbe 13fc a8bc
00000080: e89a adbe b93b 3fbe f581 40be 9f8c d1bd
00000090: da61 58bc 8872 bbbd de04 8cbe 7459 a8bd
000000a0: 6ac6 eebd 40db e8bc 89a9 ac3e 781d cc3d
000000b0: c176 253e ce7d a23e cd31 793c 2a55 7e3e
000000c0: 0f0d a33d 2102 cf3e f17d c23e 33e4 76bd
000000d0: 0a1b 1e3d 147b 32bd 6d06 76be 3f13 20be
000000e0: 5c81 8bbe 25c7 ba3e 7917 12be bca1 21be
000000f0: 186a 653c d03f 143e 27b0 2bbe cad6 e5be
00000100: 023c 75be 37a1 29be 51cb c73d 2b91 4a3e
00000110: 23e5 20be f362 5f3e 776b d7bd 9f02 153c
00000120: f96f 3fbe 0b74 41bc 266f 393d ee76 7c3e
00000130: 214c db3c 573a 853a 69b2 0abe f2cf f3be
00000140: 4fe9 683e 8449 66be 02ef 21bd 782a cb3d
00000150: 0e82 fbbd 32dc 803b 7057 983d 10f2 d1bd
00000160: 175b 66bd d868 1dbe a317 2ebd 3ab0 a53e
00000170: 9c9b f53e ba55 8dbe 1794 f2bc 7bfc 61be
00000180: 11b1 d13d 0482 5bbd 53b6 2a3e c589 ebbc
00000190: aaa2 9e3d f405 cc3d 7a62 683d 2160 88be
000001a0: bfb2 cdbc ba09 0bbf ab29 07be e149 82be
000001b0: 1679 b8bc 2a82 77bd 7cfb 66bd bb89 9f3e
000001c0: 26e2 1c3d 9462 33be b2b0 253e 854d cc3d
000001d0: 244a 523e 1d87 93be 1a61 ed3c d22e 293e
000001e0: f028 c0bb e932 cdbe a656 17be 1211 61bd
000001f0: c4da 443c 0e47 3bbe 9d49 f83d 6e99 713d
00000200: a7bb d2be c43c df3d 195d 94bb b149 50be
00000210: 0997 22bd ead8 c23c 4ae3 cabd b71e 113e
00000220: e04f 1dbc d5c3 173e 4cfb 0a3f d82f 0d3e
00000230: f42f 083d 1532 263f 2764 203e 067b 8c3d
00000240: 29d9 be3e f925 943e 4fd5 ce3e 141b 173e
00000250: 2e59 943e 325b 273e 6715 843d b2ed b43b
00000260: 2f87 22be 2788 00bf 54f7 dfbd aecb ddbd
00000270: c3d1 03be f065 30be 45b9 14be bf42 35bd
00000280: d357 0fbe 9384 7cbe da2c 26be 0816 b8bb
00000290: 7685 ad3d cec9 093d 98b6 a23e fbef 9b3e
000002a0: 341d 933d d82b 6cbe c889 81be db58 9abd
000002b0: 5a22 853d 8944 e4bd bb3b ed3d 5e72 6c3e
000002c0: 3fac 8ebe 30bc 54be 79a5 47be 6977 5abe
000002d0: be64 51be 01ae de3b beeb 17be 0a25 fc3d
000002e0: 9c8a 9b3d 963c fb3d 5ecb c73e e41e 6ebc
000002f0: 37da 303e 8523 a33b 8371 36be 346a 963e
00000300: 65f7 223e ff81 a53e c5a6 dd3e d586 bc3d
00000310: 2052 96bd f238 c2bd eca7 213e 610d c4bd
00000320: 94eb 54be 82b4 a3be fb65 393d 8e40 333e
00000330: 1f3a d6be 0e23 393e 306e 2abe fb81 443d
00000340: f9bf 59be e113 c8be b791 bebb a26a 1f3e
00000350: 7bf6 aebc 0f85 773e 98a3 c1be f9b7 173d
00000360: a5d5 133c 6baf bebe 1e58 88bd bf78 a03e
00000370: 0501 c4bd 979a a9bd 272f c43e 55f9 e8be
00000380: 2994 fdbd 2324 4f3d fd31 b63c 0880 3fbd
00000390: 6ec5 4f3d 12fc 9bbd cbfe 91be 56e3 6d3c
000003a0: cfff ecbd ff36 18be cf17 5a3e f1bf d43e
000003b0: 18c8 aa3e a25f d13c 1435 4e3e 5792 083e
000003c0: ec74 b23d 3797 8d3d 5a97 743e 05c5 7abe
000003d0: 1e42 d13d 3ef0 333e 5258 95be 9b77 62be
000003e0: 03d0 7ebe 44c2 b0bd 1108 fa3b 7ad5 71bd
000003f0: 32aa d8bd 126f 91bd e8a3 aabe e826 71bd
0.3296807 0.13365129 0.22775394 0.46851838 -0.06373491 0.10238853 -0.05416381 0.022632511
0.09377866 -0.44112888 0.23414685 0.16393615 -0.043418184 -0.077986404 0.15217718 -0.13327573
-0.18740305 -0.14281993 0.1410197 0.046360668 0.18306692 0.081698366 0.28928763 -0.061134048
-0.17376049 -0.27518833 -0.16940671 -0.14823838 -0.16824323 -0.1259108 -0.4639329 -0.02062801
-0.33907247 -0.18675126 -0.18799575 -0.102318995 -0.013206923 -0.091527045 -0.27347463 -0.08220187
-0.11658938 -0.028424859 0.33723095 0.09966558 0.16158582 0.31736606 0.015209627 0.24837175
0.07961475 0.40431312 0.3798671 -0.06027622 0.038600005 -0.043574408 -0.24025889 -0.15632342
-0.2724713 0.3648006 -0.14266767 -0.15784353 0.0140023455 0.14477468 -0.16766416 -0.44890434
-0.23948672 -0.16565405 0.097555764 0.1978194 -0.15712409 0.2181509 -0.10518544 0.009094863
-0.18695058 -0.011807452 0.045272015 0.24654743 0.0267697 0.0010164481 -0.1354462 -0.47619587
0.2274525 -0.22488981 -0.039534576 0.0992021 -0.12280665 0.0039324993 0.074385524 -0.10251248
-0.056239214 -0.15372026 -0.04250301 0.32361013 0.47970283 -0.27604467 -0.02961163 -0.2206897
0.10238851 -0.05359079 0.16671114 -0.028752217 0.077458695 0.09962073 0.05673454 -0.2663584
-0.025109647 -0.54311717 -0.13199489 -0.2544699 -0.022518676 -0.06042687 -0.056392178 0.31159768
0.03830161 -0.17518073 0.16180685 0.09975723 0.20536095 -0.2881402 0.028976966 0.16521767
-0.005864255 -0.40077904 -0.14779148 -0.05494792 0.012015048 -0.18288824 0.121234156 0.058984213
-0.41158792 0.10900262 -0.0045276997 -0.20340611 -0.03969482 0.023785073 -0.09906633 0.14171873
-0.009601563 0.14820798 0.542897 0.13787782 0.033248857 0.6492017 0.15663205 0.06859402
0.37275055 0.2893522 0.40397117 0.14756423 0.2897429 0.16343382 0.06449395 0.0055214996
-0.15871881 -0.5020775 -0.10935846 -0.108298644 -0.12872986 -0.17226386 -0.145238 -0.044253107
-0.13998346 -0.24659948 -0.16228047 -0.0056178607 0.08472721 0.03363972 0.31779933 0.30456528
0.071833044 -0.230636 -0.2530043 -0.07536479 0.06500693 -0.111458845 0.11583658 0.23090503
-0.27865788 -0.20774913 -0.19496717 -0.21334614 -0.20448586 0.006795645 -0.14836022 0.12311752
0.07594797 0.12267415 0.39022344 -0.014533732 0.17270742 0.0049785995 -0.17816739 0.29377902
0.15914686 0.32325742 0.43291298 0.09205405 -0.07339883 -0.09483518 0.15786713 -0.09572864
-0.20792991 -0.31973654 0.04526327 0.17505094 -0.41841218 0.18079779 -0.16643596 0.04797552
-0.21264638 -0.39077666 -0.0058157104 0.15568021 -0.021357765 0.24171852 -0.37820125 0.037040684
0.009023105 -0.37243208 -0.06657432 0.31342122 -0.09570507 -0.08281439 0.38317224 -0.45502725
-0.12381775 0.050571572 0.022240633 -0.04675296 0.050725393 -0.07616438 -0.28514704 0.014519533
-0.11572229 -0.1486473 0.21298145 0.4155269 0.33355784 0.025558297 0.20137435 0.13337074
0.08713707 0.069136076 0.23885861 -0.2448922 0.10217689 0.17572114 -0.29168946 -0.22115938
-0.24884038 -0.08630803 0.007630356 -0.059041478 -0.10579337 -0.07101263 -0.33328176 -0.058874995

conv_res0.conv1.4.weight f4 [16]
00000000: 3e9f 1a40 ad30 3840 7db4 0c40 663e 3c40
00000010: a482 5e40 27fa 1240 ed4d 4e40 fdb5 3940
00000020: ad4e f93f 9aad 1b40 cf5d 4e40 a28d 4240
00000030: 6c1d 2340 6df3 5f40 0077 5040 14fd 3040
2.4159694 2.877971 2.1985161 2.9413085 3.4767237 2.296518 3.2235062 2.9017327
1.9477135 2.4324708 3.2244756 3.0398946 2.5486708 3.4992325 3.2572632 2.7654467

conv_res0.conv1.4.bias f4 [16]
00000000: b890 dcbf 788c 07bf f9f2 4f3d 610b 0ac0
00000010: 5162 363c 4c2e 933f 63f3 933f e836 603f
00000020: b3e0 c3be d3e0 b8bd d452 0bbe 5778 1940
00000030: 067b 6ebd 8e06 47bf 6e8d 0c3f da8c 943e
-1.7231665 -0.52948713 0.050768826 -2.1569445 0.011131839 1.1498504 1.1558651 0.8758378
-0.3825737 -0.09027257 -0.13605815 2.39797 -0.058222793 -0.77744377 0.54903305 0.2901371

conv_res0.conv1.4.running_mean f4 [16]
00000000: d132 3c3f 46c4 0d3f d406 c33e efe0 563f
00000010: 0715 3f3f cfd4 20bc 2225 5b3f b201 e13d
00000020: d930 fa3e e727 8a3e 5096 b53e 2793 ad3e
00000030: cbaf cd3d 701a 1f3f ed76 833e cf5a 383f
0.7351504 0.55377614 0.38091147 0.8393697 0.7464146 -0.0098163625 0.85603535 0.109866515
0.48865393 0.26983568 0.35466242 0.3390133 0.100432955 0.62149715 0.2567667 0.7201356

conv_res0.conv1.4.running_var f4 [16]
00000000: fe03 e43e 45f1 d23e 7517 8f3e 222f dc3e
00000010: 1075 eb3e 2e11 5c3f da2e 443f 94f9 263f
00000020: d68f 0a3f e1e6 cc3e 6552 f93e 3b90 033f
00000030: 59bb 563f 459c 993f 41e1 2a3f 26fb fa3e
0.44534296 0.411997 0.27947584 0.4300471 0.4598775 0.85963714 0.7663399 0.65224576
0.54125726 0.40019897 0.48695675 0.51391953 0.8387962 1.2000815 0.6674996 0.49019736

conv_res0.conv2.0.weight f4 [16, 1, 3]
00000000: ce93 f93d 940b 3cbe 17b0 123f af59 9fbe
00000010: 02d0 82be 0bdc b23d 638f a03c 57ec 183f
00000020: 67d1 233f 8164 113f 625a 043e f9f1 6fbe
00000030: 5fe7 3ebe ea7f d63d 2329 29bf ce33 b8be
00000040: 7e11 313b bb51 e53e 3ac9 3c3e cd02 023f
00000050: 862c fdbe 0308 8c3f 6989 e13c f16f 41bc
00000060: 92d9 053e afaf 093f a2c8 cb3e 602f 083f
00000070: ed4c a0be c627 d2be 081e c23e a569 1e3e
00000080: 3aa4 a4be e25e 9e3d ccd0 213e 8c9f 7abf
00000090: 5f0b abbe 5329 1e3e 85c5 123f b58b d5be
000000a0: b8d9 6b3e 8d01 da3c 5bc2 8b3f 3cf7 37bd
000000b0: 9516 343d 4464 4ebf ba17 61be b9e5 8bbe
0.12186395 -0.18363792 0.5729994 -0.3112311 -0.25549322 0.08733376 0.019599622 0.59735626
0.639914 0.5679398 0.12925103 -0.23432149 -0.18642949 0.104736164 -0.66078395 -0.35977024
0.0027018483 0.44788918 0.18436137 0.50785524 -0.4944803 1.0939945 0.027531343 -0.011806474
0.13071278 0.53783697 0.39801508 0.5319729 -0.3130869 -0.4104597 0.37913537 0.15469988
-0.32156545 0.07732941 0.15802306 -0.978997 -0.33407113 0.15445451 0.5733264 -0.4170815
0.23032272 0.026612068 1.0918688 -0.044913515 0.04396685 -0.80621743 -0.21981707 -0.27323702

conv_res0.conv2.1.weight f4 [16]
00000000: 694d 673f 1bfe 3a3f d5b6 893f 840e 563f
00000010: 0e01 513f 50d2 ab3f 7afe ca3f 208c 9e3f
00000020: daf6 1d3f 0f36 9f3f 7450 ad3f 84ce a63f
00000030: 663f 5d3f 8f6c 893f 6ff7 803f d5b9 6a3f
0.90352494 0.73043984 1.0758921 0.836159 0.81642234 1.3423557 1.585891 1.2386513
0.6170479 1.2438372 1.3540177 1.3031774 0.86424863 1.0736254 1.0075511 0.9168981

conv_res0.conv2.1.bias f4 [16]
00000000: 4943 423e 7f0c 093f 55df 94be eb2d d53e
00000010: fc44 2f3f 9b2b b93d 9505 453e fac7 6bbf
00000020: cb83 803f df1b 8f3e 22b1 d3be 1473 51bf
00000030: ecbe e53e 281e aa3e 37bb 243f 1141 0dbf
0.1897098 0.5353469 -0.2907664 0.41636595 0.68464637 0.0904152 0.1924041 -0.92102015
1.004022 0.2795095 -0.4134608 -0.8181622 0.44872224 0.33226132 0.6434817 -0.5517741

conv_res0.conv2.1.running_mean f4 [16]
00000000: e154 803d 5d5e 74bd 4460 1f3e 8d4e 6c3d
00000010: e4d8 b9bd 258d 343c 7a18 d43c 23b4 0c3e
00000020: 0351 073e e94d bdbc f7fd db3c 109b babd
00000030: e38f 453d 0923 9dbc 77f1 093e b09d 24be
0.06266189 -0.059660304 0.15564066 0.0576921 -0.09074572 0.01101998 0.025890578 0.13740592
0.13214497 -0.02310844 0.026854498 -0.09111607 0.048232924 -0.019181745 0.13471018 -0.16075778

conv_res0.conv2.1.running_var f4 [16]
00000000: 2826 8b43 48ef 0c43 d994 4f44 0f80 5643
00000010: c31d d543 f727 e942 d2ff 7843 b528 6844
00000020: 1704 0e44 d4b0 5743 bb57 dc42 e89b 1a44
00000030: d9ed 5643 d77c e642 c23a 6944 1fea 6544
278.2981 140.9347 830.32574 214.50023 426.2325 116.57806 248.9993 928.63605
568.0639 215.69073 110.17135 618.43604 214.9291 115.24383 932.9181 919.65814

conv_res0.conv2.3.weight f4 [16, 16, 3]
00000000: 37d2 41bd 04c7 a13d 0127 883d fc83 983e
00000010: 53e3 58be abef 8abd 8254 02be 1af3 f13d
00000020: 4de5 2e3e 30cc dabd bad4 8abe d8cd efbd
00000030: 074f 843c 2cca 4c3d 99c0 623e dfd1 243e
00000040: 785a 093e f971 a83d 49c0 083d 5c8f 79be
00000050: a423 92bd 5e08 1f3f ced3 d03d 0adf 373e
00000060: f5c0 45bd ca88 0dbe f0ea 953c c982 893d
00000070: b64a 5e3e c8a3 713d 6c75 793e 6473 cfbd
00000080: a4bd 8e3e 0f1d eabe ed54 923e f8e9 313e
00000090: a75d 9bbe f24d 84bd f6fd a7bd 1fce 1c3e
000000a0: 1e2a 2abe 85af b63d 39b9 97bd 69a6 babe
000000b0: 8a71 d6be a61f 35be bdd1 bdbe 651e adbd
000000c0: b163 64be 1e1a 0dbe edc9 1bbe 765e a3bd
000000d0: 49df 293e 50d5 6b3e 6b35 833c ade3 01be
000000e0: b802 c1bd 74b6 43be 9ee2 0abe 6eff 243e
000000f0: c06e cb3e 3c1e d13d 5c05 62bd d074 003c
00000100: affa 67be 0217 a6be eaee 3bbe 650e 46bd
00000110: ebaf 6abd edbc 603e a1b6 563e 9fc0 513f
00000120: 3b0d 47be c6cf 18be b2bf e5bd 78a6 53be
00000130: 4b62 02be 156d 45bc 2b99 a03c 696d cfbb
00000140: cf18 86bd 36a0 503e e79f e1bd 027c 10bd
00000150: 494f a93e 158d 883d 6782 4b3c 39c8 41bd
00000160: b4af 073e 31f2 4a3e c1d9 80be 57b6 f3bd
00000170: b85c 5bbe 68c0 03bf d85c 9ebe 3320 a9bd
00000180: fd9b 5dbe bf9a c53d ed6e 5abe f18f 9a3e
00000190: 2048 833d 04cf 353e b3e2 f63d b108 3e3e
000001a0: b24b 7b3d 8a66 91bd b909 d9bb 3910 8abe
000001b0: 3bbb 2fbd 3828 913d b19d f33c a48a f13e
000001c0: 83c2 1e3e e642 04be 29db ae3d 6c2c 503e
000001d0: 9acc 12be e0a3 c83e 1f70 5b3e f327 bcbd
000001e0: 6626 2fbe f38b 01bc 8172 1fbe cd2d ae3d
000001f0: 5e2d aa3d 12c7 773e 8f74 8b3e 215f 1f3d
00000200: 4af5 23be 55c2 dcbe b1d9 ccbe d7da 97be
00000210: 6ba5 aebe 4749 66bd e9ef 4cbd 60f5 a03e
00000220: 9b66 cd3d 4444 96bd 5da2 423e eb59 05be
00000230: 705a d3bd 683c dc3e 7606 31be efde 8ebe
00000240: b4de c8be b01c fd3d 8036 b3bd 1df2 203e
00000250: 1919 99bd 82df d23d 7028 2fbe a828 77bd
00000260: 9939 1cbe cde8 d3bd 0e9d bcbd 289d 27be
00000270: 12ac f63c 4eb3 cb3e bc0d 113f 2233 e63b
00000280: 04da e13c 8a86 26bd 1c28 acbd 758a 523d
00000290: 5161 10be 825d b93e 0a9d 30bd 5432 7d3e
000002a0: b2ee c73d e636 003e 8a45 febc a895 c93c
000002b0: f3f5 183e c794 c63e 0a96 723e afb5 7b3e
000002c0: 5a35 923d f7e4 09bf 5c93 03bf 6c5b 90be
000002d0: b6ed 25be 5c74 12be fcf1 d43c b0cd a43d
000002e0: 02b4 ef3d a764 e03e eaa5 8b3d 7136 3cbd
000002f0: 278d 84be f208 783e c3d5 21be dc0a fdbe
00000300: 8fe9 eabe 7077 bfbd aa52 15be f43b 873e
00000310: d9dc 323e 5e7d 393d 59a3 86bd 727a 7e3d
00000320: 4fa6 5bbd 6394 853c 08f9 c33d 82b5 c5be
00000330: a4f8 ea3e 6f81 3c3d 327f f83d 244c c83d
00000340: a089 4f3c 67f7 d8bc bcd0 123e 1011 31be
00000350: 79dc 6fbd 3f0d 1c3f 99ae 6e3e 28b6 213f
00000360: dddc 0ebe bdd5 30be 41cf be3d 7b60 cbbd
00000370: 3ac6 ebbc d95c 4bbc 8cfa f73b be59 0d3e
00000380: cb37 8fbd 42aa 59bf f8f1 273e fea3 a9bd
00000390: b943 4f3d a8ab 91bd 84f9 b7bd 237b 613e
000003a0: fc31 af3d cedb aa3d 06af 63be f922 b33d
000003b0: e10b 89be 992d 64be c0f4 d93d 260b 9ebe
000003c0: 567e 71bd 9836 d2bc 6e28 b9be 6873 213d
000003d0: b7ec 48bd b29e 453e c7c2 063e 2917 2b3d
000003e0: 82c4 4f3e 2665 52bd b5cb 13bc a35a f13d
000003f0: 1276 a2bd e63b 983d 18f3 8e3e 0388 efbd
-0.047319617 0.07899287 0.066480644 0.29788196 -0.21180467 -0.06783994 -0.1272755 0.11813946
0.17079659 -0.10683477 -0.27115422 -0.117091835 0.016150964 0.049997494 0.22143783 0.16095684
0.13413417 0.082248636 0.033386502 -0.24371094 -0.07135704 0.6212214 0.101966485 0.17956176
-0.04827972 -0.13821712 0.018300503 0.067143984 0.21708187 0.058994085 0.24361199 -0.10129431
0.2787906 -0.45725295 0.28580418 0.17374408 -0.3034489 -0.064601794 -0.08202736 0.15313004
-0.16617629 0.089201964 -0.07408375 -0.36455086 -0.41883498 -0.17687854 -0.3707408 -0.08453063
-0.22303654 -0.13779494 -0.15213747 -0.07977001 0.16589083 0.23030591 0.016016683 -0.12684508
-0.09424347 -0.19112569 -0.1356301 0.16113064 0.39732933 0.10210845 -0.055180892 0.00784035
-0.22654222 -0.3243943 -0.18352857 -0.04835357 -0.057296675 0.2194707 0.20968105 0.8193454
-0.19438641 -0.1492301 -0.112182036 -0.20668972 -0.12732808 -0.012049933 0.019604286 -0.0063301814
-0.065477006 0.20373616 -0.11016827 -0.035274513 0.33068302 0.06667534 0.012421227 -0.047310088
0.13250619 0.19818951 -0.25166133 -0.11900013 -0.21422088 -0.51465464 -0.3093021 -0.08258095
-0.21641536 0.09648656 -0.21331377 0.30187944 0.06410241 0.17754751 0.12054958 0.18558003
0.061351486 -0.07099636 -0.0066234735 -0.26965502 -0.042903166 0.07087749 0.029738279 0.47176087
0.15503888 -0.12916145 0.08537895 0.20329446 -0.14335862 0.39187527 0.2142949 -0.09187307
-0.17104492 -0.007906902 -0.15571024 0.085048296 0.08309434 0.24197033 0.27237365 0.03890908
-0.16011539 -0.43117014 -0.40009835 -0.2965915 -0.3411058 -0.056222226 -0.050033484 0.31437206
0.10029336 -0.073372394 0.19007249 -0.13022582 -0.10319984 0.43014836 -0.17287621 -0.2790446
-0.3923241 0.12358987 -0.087506294 0.15717359 -0.0747549 0.10296537 -0.1710527 -0.060341507
-0.15256347 -0.103471376 -0.09209643 -0.16368544 0.030111346 0.39785236 0.5666158 0.0070251385
0.027569778 -0.04065565 -0.08406088 0.051401574 -0.14099623 0.36204153 -0.043118514 0.2472623
0.097623244 0.12520942 -0.031039018 0.024607494 0.14937572 0.38785383 0.23690048 0.24581026
0.07139082 -0.53865 -0.5139673 -0.2819475 -0.16203961 -0.143022 0.025994293 0.08047044
0.11704256 0.43826792 0.06818755 -0.045950357 -0.2588894 0.24222162 -0.158042 -0.49422348
-0.45881316 -0.09348953 -0.14582315 0.26412928 0.17467059 0.045285575 -0.06574125 0.06212849
-0.0536254 0.016306108 0.09568983 -0.38615042 0.45892823 0.046021875 0.121336356 0.09780148
0.01266709 -0.026485158 0.14337438 -0.17291665 -0.05855987 0.6095771 0.23308791 0.63168573
-0.1395144 -0.17269035 0.09316874 -0.099305116 -0.028781045 -0.012412273 0.0075677093 0.13803765
-0.069930635 -0.8502542 0.16400898 -0.08283232 0.050601695 -0.07112819 -0.08983138 0.22019629
0.08554456 0.08342706 -0.22234735 0.08746905 -0.26766875 -0.22283019 0.106423855 -0.3086788
-0.058958374 -0.025660798 -0.36163658 0.0394167 -0.049053874 0.19298819 0.13160239 0.041770134
0.20289806 -0.051365994 -0.0090207355 0.11784866 -0.079326764 0.074333 0.2791984 -0.11695864

conv_res0.conv2.4.weight f4 [16]
00000000: c1b5 3040 6698 3440 6ac0 2b40 ced6 3f40
00000010: 0433 8940 3b67 1540 285a 6740 844d 4540
00000020: 8248 0c40 ee30 1f40 c623 6c40 f206 3940
00000030: 59cb 2d40 94bb 5740 39bf 4e40 92c6 2640
2.7610934 2.8218017 2.683619 2.9974856 4.2874775 2.3344257 3.6148777 3.0828562
2.1919255 2.4873614 3.6896834 2.891049 2.7155364 3.3708239 3.2304213 2.6058698

conv_res0.conv2.4.bias f4 [16]
00000000: b890 dcbf 788c 07bf f9f2 4f3d 610b 0ac0
00000010: 5162 363c 4c2e 933f 63f3 933f e836 603f
00000020: b3e0 c3be d3e0 b8bd d452 0bbe 5778 1940
00000030: 067b 6ebd 8e06 47bf 6e8d 0c3f da8c 943e
-1.7231665 -0.52948713 0.050768826 -2.1569445 0.011131839 1.1498504 1.1558651 0.8758378
-0.3825737 -0.09027257 -0.13605815 2.39797 -0.058222793 -0.77744377 0.54903305 0.2901371

conv_res0.conv2.4.running_mean f4 [16]
00000000: 7d5a 2abf 260f 56bf aa0c e33d 7489 4c3f
00000010: 985b b1bd 0c8e a8bf 6416 c0bc ff4d 17be
00000020: 377d b1be f750 8bbe af9a 20be 36cb a4bf
00000030: cf8c ebbe 2786 6cbf 4f0e 54be d77f da3d
-0.66544324 -0.83616865 0.110864 0.79897237 -0.08660048 -1.3168349 -0.023448177 -0.14775847
-0.34665844 -0.2721021 -0.15684007 -1.2874515 -0.46005866 -0.923922 -0.20708583 0.10668915

conv_res0.conv2.4.running_var f4 [16]
00000000: 387a 1c3f 90a1 253f 3ace d03e 8aef 393f
00000010: cb59 393f c48c b03f 88fe 1d3f 554e 593f
00000020: e8c9 063f efd0 2d3f f82f aa3e bab7 fb3e
00000030: a85f f23e 58c1 ad3f 0d55 d53e 1b82 e83e
0.6112399 0.6469965 0.40782338 0.7263113 0.7240264 1.3792958 0.6171651 0.8488515
0.52651834 0.6789693 0.33239722 0.4916361 0.47338605 1.3574629 0.4166645 0.45411763

conv_res1.conv0.0.weight f4 [32, 16, 3]
00000000: 9b0b 8b3e 2533 6fbe 5546 6fbd b813 44bd
00000010: fa96 d63c 7757 d0bd eebd 973d 0ec1 cc3d
00000020: b235 4f3e f9f2 ad3c ea00 59bd 235c 81bb
00000030: 5387 65bd ff5f 6c3e b85e a33e 5e2d b2bd
00000040: f5a2 b93d a95e 9bbd 2505 383e 70ed 273e
00000050: 6fcc 153c b89b 2d3e 6214 a5be fa27 26be
00000060: e350 993e 2c49 9d3d af77 263e 138f b83d
00000070: 4155 a63d 1a9e d2bd ae25 4c3e 1c14 04be
00000080: 6d96 50be 124b 68bf 0ebe a8be 06e3 f9bd
00000090: 46c2 45bd c0bb 36be f294 623d cb17 08be
000000a0: 2ff5 863d 675b 463d 8a0d 95be c607 dbbd
000000b0: 9a07 43be 924b 1c3e 2394 cc3d af64 35be
000000c0: c9bd 9bbd 2a72 673e 872b 9b3d f8ec a4bd
000000d0: 8554 873d f9fa 8a3d 9cc1 91be b407 eb3d
000000e0: afd1 1cbe 2bce 1bbe 21db 4d3e a773 2cbe
000000f0: 0508 95be ca8a 2c3e 8c6d 9bbb 6e36 37be
00000100: 49cf d23d dc9f 69be cc57 083d 06d1 14be
00000110: 5567 18bf 057a b4be 3560 71bc 65b3 21bd
00000120: c958 47be c020 093e 99a7 ccbd cc9d ba3d
00000130: 00a7 243d 3d85 0c3e 317d a6be 475f c33d
00000140: 2995 143d 2f1a 2b3e 447d 433e 3275 9fbe
00000150: 29ed b53d 5a0e b43d b916 18be 5ed1 cfbd
00000160: b0fb 313e 9840 82be 1a69 0cbe 2a9a babd
00000170: abed c5be d83a 25be 6b17 6a3e c1d7 aa3c
00000180: f517 663e 3784 0e3e e2e7 883d 54d4 913e
00000190: e8f0 db3e 4e59 803d 8236 543e 84e8 a4bc
000001a0: fb6c febc 7bd9 343d 54c0 d5be 72aa 5c3d
000001b0: 61e8 953e 1285 5c3e c1d4 e83b 57fa 3fba
000001c0: f38b e8bd 71dd 88be b072 a1ba be60 01bf
000001d0: e8f1 4cbe 1b1c 03be 2a18 b53d 71f7 c1bd
000001e0: 874a 97bc 2952 383e 4e07 973d ac27 e93d
000001f0: 6ac1 d9bb 175b 0cbe cec6 bbbc bf69 bdbd
00000200: 0f78 6c3e 8591 f83e d13f aa3e 5219 ab3b
00000210: 80e0 cbbd 49b3 c33d 3a0b 43be fa42 703e
00000220: 3596 8fbe 0cb6 90be e719 0d3e 0244 54be
00000230: 2e59 873d ef75 6f3d 23c0 153d 9c57 033e
00000240: 2aa2 893e 7506 f03e e22e 323e f6ea 2e3e
00000250: ce3a a43d 3683 38be 1484 77be 25dc 8cbe
00000260: 83e3 c73c 310b 3a3f cd7b 2b3f b7bf 973e
00000270: 2eef b8bd a66d af3e 2b5c 4f3e 3466 dcbc
00000280: 9941 47be 5d52 bb3d 0b2f eebc db72 e3bd
00000290: 562c 03bd e319 48be 0873 d7bd 8020 b3bd
000002a0: 74bd a23d ac43 95bc bc53 1f3e 59d0 40bd
000002b0: 2a75 803d 6345 1d3e 0cf1 60be 9bdc 15be
000002c0: 348f a4be 2984 f4bc e351 443e ff7b 93bd
000002d0: e81a 073e d1cc 453e 792d 4fbd 2269 5b3d
000002e0: da8c 05be a7f8 f1bd 5a96 453d 7373 723c
000002f0: 61e7 2d3e 30af 06be 2997 12bd d617 533b
00000300: b09c 813d 6a36 08be 0dd3 e5bd af4d e13d
00000310: b3dd ae3e 289f 963d f57f 6cbe de25 94be
00000320: dc1c 5fbe 1b56 d63e af0e dd3c 9d78 49bd
00000330: 9d68 4b3e 0818 ae3e 7512 a6be 4b9f 373e
00000340: a4d4 19bc b3df 30be 769a 273e 6ddb 923e
00000350: b658 a63c fd63 dd3d 3382 40be 393c cfbc
00000360: 693f 24be 5c1e c7bc 1f3d 03bc a8e7 0bbd
00000370: acd9 023e 6053 4a3e 5dcf 343e 0ddb 8fbd
00000380: 6600 a13d dc9c 513e fe78 ff3e 352d 2e3e
00000390: aa96 b7bc 189f e03d 474b df3c 7eb8 863e
000003a0: f294 723e 5b34 c3bd bd95 da3c 5ef8 d5be
000003b0: b05c b13a 6d4c 92bd 2fad e4be 2be7 0f3d
000003c0: 54c1 aebd 5f7c aebc 5499 703e 9b57 31bd
000003d0: c397 853e b9c8 9f3e e74e 31be d4fa a6bc
000003e0: 5e29 233e b346 a6be 754e d6be a3e3 123e
000003f0: d3f2 62be 22f8 0bbe 4668 bb3e 4030 ecbe
0.27157292 -0.23359354 -0.058416683 -0.047870368 0.026195038 -0.101729326 0.07409273 0.0999776
0.20235327 0.021234022 -0.052979387 -0.003947751 -0.05603726 0.23083495 0.31908202 -0.08700059
0.09064285 -0.07586414 0.17970712 0.16399169 0.009142979 0.16953933 -0.32242113 -0.16226187
0.29944524 0.07679972 0.16256593 0.09011664 0.0812173 -0.10284062 0.19936249 -0.12898296
-0.20369883 -0.9073955 -0.329575 -0.122015044 -0.048280977 -0.17845058 0.055317827 -0.13290326
0.06589734 0.04842701 -0.29111892 -0.10694842 -0.19045869 0.15263203 0.09989192 -0.17714189
-0.07604558 0.22602144 0.075766616 -0.08053011 0.06607918 0.067861505 -0.28468025 0.11476079
-0.15314363 -0.15215366 0.20103122 -0.16840993 -0.2910768 0.16849819 -0.0047432836 -0.17891857
0.10293443 -0.22814888 0.033286855 -0.14532861 -0.5953267 -0.35249344 -0.01473241 -0.039477725
-0.19467463 0.133914 -0.09992904 0.091121286 0.040198326 0.13722701 -0.32517388 0.09539657
0.036275063 0.16709207 0.19090754 -0.311441 0.08883125 0.087918 -0.14852418 -0.101473555
0.17381167 -0.25439906 -0.13711968 -0.09111436 -0.3865789 -0.16135728 0.22860496 0.020854833
0.22470076 0.13917623 0.06684853 0.28482306 0.42957234 0.062670335 0.20723918 -0.020130403
-0.031057825 0.044152718 -0.41748297 0.053873487 0.29278854 0.21535137 0.0071054404 -0.00073233753
-0.11354818 -0.26731446 -0.0012317505 -0.5053824 -0.20014155 -0.1280369 0.088424996 -0.09471024
-0.018468155 0.18000092 0.0737444 0.1138452 -0.006645371 -0.13706623 -0.022921946 -0.09248685
0.23092674 0.48548523 0.33251813 0.0052215243 -0.09954929 0.0955568 -0.19047251 0.2346305
-0.28044286 -0.2826389 0.13779412 -0.20729068 0.066088066 0.05846208 0.03656019 0.12826389
0.26881534 0.46879926 0.17400697 0.17081818 0.080190286 -0.18018803 -0.24171478 -0.27511707
0.024400478 0.72673327 0.6698578 0.29638454 -0.09029995 0.34263343 0.20250003 -0.026904203
-0.19458617 0.09146569 -0.029075166 -0.11105891 -0.032024704 -0.19541125 -0.10519987 -0.08746433
0.079462916 -0.018220745 0.15559286 -0.047073696 0.06272347 0.153585 -0.21966952 -0.14634936
-0.32140505 -0.029848175 0.19171862 -0.07201385 0.13193858 0.19316413 -0.050580475 0.05356706
-0.13042012 -0.11815005 0.04823909 0.014798033 0.16982795 -0.13152766 -0.03578869 0.0032210252
0.06328714 -0.13302007 -0.11221895 0.11001145 0.34153518 0.073545754 -0.23095687 -0.2893514
-0.21788353 0.41862568 0.02698454 -0.04918729 0.19864126 0.3400271 -0.32435957 0.17931859
-0.009389076 -0.17272834 0.16367516 0.28683034 0.020305973 0.10810087 -0.18799667 -0.025297271
-0.16039814 -0.024306469 -0.008010178 -0.03415647 0.12778348 0.19758368 0.17657228 -0.070242025
0.07861404 0.20469993 0.49896997 0.17009433 -0.02241071 0.10967845 0.027257575 0.2631263
0.2368963 -0.095314704 0.026682729 -0.41791052 0.0013531651 -0.07143483 -0.4466338 0.03513257
-0.08532968 -0.02129954 0.2349599 -0.043296438 0.26092348 0.31207827 -0.17315255 -0.020383276
0.15933749 -0.32475814 -0.41856733 0.14344649 -0.22162943 -0.13668874 0.36602992 -0.46130562

conv_res1.conv0.1.weight f4 [32]
00000000: 4524 503f 6ea6 763f 57fd 4b3f 95ca 833f
00000010: 70d3 7f3f 1080 a63f 8cbc 6d3f 5cc7 9b3f
00000020: d80f 7f3f 5a08 303f 9c95 7b3f ed8a 8c3f
00000030: 32e4 ad3f d724 873f 65b0 783f 1ec8 4f3f
00000040: 7240 5c3f 4d47 6d3f b9c7 4e3f 50ac 7d3f
00000050: 4e60 5b3f 0251 433f 140c 9b3f 47a9 503f
00000060: 2e68 653f 01b1 323f e409 aa3f e168 4b3f
00000070: 0182 853f 3201 813f 7f98 923f 4ef9 593f
0.8130534 0.963477 0.7968344 1.0296198 0.99932003 1.3007832 0.92865825 1.2170215
0.9963355 0.68762743 0.9827516 1.0979897 1.3585265 1.0558118 0.97144157 0.8116473
0.86035836 0.9268692 0.807735 0.99091053 0.85693824 0.76295483 1.2113061 0.81508297
0.8961209 0.69801337 1.3284268 0.7945691 1.0430299 1.007849 1.1452788 0.85146034

conv_res1.conv0.1.bias f4 [32]
00000000: b614 1dbf 6c70 8cbe 4b16 97bd 3f3b 56bf
00000010: 10a9 0b3e 261e c93d 2209 85be 7cc5 163e
00000020: 82bd 673e 14ec 35bf 504f 24bf 2116 103e
00000030: 62b6 3a3e 22bc eabd 8755 93bd 332d bf3d
00000040: a569 a4be 55fb dbbe 9fc1 c6be b06c dcbe
00000050: 92a0 e9be b663 81be bdc6 f23d 3156 8fbe
00000060: 3192 46be c7ab f8be c8a2 e5bd 79f6 9abe
00000070: 315d 0dbf 24cd acbe 009e a8bc a7c4 3dbe
-0.6135973 -0.2742952 -0.07377299 -0.8368415 0.13638711 0.098202035 -0.2598353 0.14723772
0.22630885 -0.7106335 -0.6418352 0.14070942 0.18233636 -0.11461665 -0.071940474 0.09334793
-0.3211185 -0.4296519 -0.38819596 -0.43051672 -0.45630318 -0.25271386 0.118543126 -0.27995446
-0.19391705 -0.48568556 -0.11212689 -0.3026617 -0.55220324 -0.3375026 -0.020583153 -0.18532048

conv_res1.conv0.1.running_mean f4 [32]
00000000: 7490 b6c0 ff44 00c1 ec64 6340 6c8b 543f
00000010: dcac 9c40 39c5 96c0 adf4 1640 aec2 c1c0
00000020: 1c4c fe40 7fcd 8ec0 cf44 ccc0 c15a 1e40
00000030: 9858 a6bf 672c 2fc0 2ca8 5d40 3d51 f940
00000040: 23e5 5741 b399 4040 0ea4 18bf 6af8 66c0
00000050: 39b9 673f 72ed 86c1 7876 3bc0 8711 0241
00000060: c9c4 df3f 92bf 5c41 fa2b 9340 d350 c1c0
00000070: c57c d0c0 3247 8640 3a56 59c0 9df6 88c0
-5.7051334 -8.016845 3.5530348 0.8302524 4.896101 -4.711575 2.3586838 -6.0550146
7.9467907 -4.462585 -6.3833995 2.4742892 -1.2995787 -2.737085 3.4633894 7.791167
13.493442 3.009381 -0.5962533 -3.608912 0.90517 -16.86594 -2.9291058 8.129279
1.7481929 13.79677 4.599118 -6.041116 -6.5152307 4.196191 -3.3958879 -4.280104

conv_res1.conv0.1.running_var f4 [32]
00000000: 891b f540 d673 e841 83ba 3241 4df7 5c41
00000010: 9b31 2d41 9f82 0042 83cc 8741 c587 2642
00000020: 50b2 a741 cbc9 8c41 82e1 0541 8c0e 2c41
00000030: 6096 8741 1e4b 9041 cae0 3741 eb7b ca41
00000040: b159 8b42 861b cf40 6e5f 8041 2978 4d41
00000050: 449b 0841 18dc 2443 a4d9 5041 81bf a041
00000060: 69a1 3141 1bfb ba42 b674 2441 53b8 c241
00000070: 0964 2041 482e ea40 1fdc 8041 b46d a541
7.659611 29.05656 11.170535 13.810376 10.824611 32.12756 16.97486 41.632587
20.962067 17.598532 8.367556 10.7535515 16.948425 18.036678 11.49238 25.310507
69.67518 6.47211 16.046597 12.841836 8.537907 164.85974 13.053135 20.093508
11.101907 93.49044 10.278494 24.340002 10.024423 7.3181496 16.107481 20.678566

conv_res1.conv0.3.weight f4 [32, 32, 3]
00000000: b5f1 8ebe ec12 543e 47e8 973d 5952 abbe
00000010: 9411 acba a733 28be 3064 f0bd 635a 95be
00000020: 7266 4abe b359 56bd 7f1e babe 0a1c 09bf
00000030: ec48 173d 0238 07bd a558 90be a97f 5cbe
00000040: d9dd 5e3d 9fdc 50be c987 513e 3b6b 353e
00000050: 6ed6 3fbc 4f25 6fbd 9d6a 27be 947f d4bb
00000060: b0d7 e5bd cca4 e0be 2cdb acbd 9f26 c0bc
00000070: baf6 87be 0c20 96be 6567 d4be aa4c 37be
00000080: fcbd 67be d924 1a3e f34b dc3a 31ec 593e
00000090: e265 c6be c73d 2cbd be9f 1abc d33c 9e3d
000000a0: f02e 283d 5f6f a13d 16eb e2bd a7f9 6fbe
000000b0: 0dc8 3ebe 4058 603e bf6c 78be 523d cbbd
000000c0: 31b2 7f3c f8bc 5bbe 3978 9abe 1f4c 9b3e
000000d0: ed9f 6b3e 1259 0d3e 2882 71be ffd1 07bf
000000e0: 8df6 1e3d 0aed 77be a9e8 d03d ab30 04be
000000f0: 5823 c2be a0c9 02be 4ed6 d9bd bb19 4bbe
00000100: 4778 28be 50dd dd3d b6b0 d33c 884e 013e
00000110: ade5 45bd 1bc3 903d 1d3a da3c 8288 f6bd
00000120: 54a6 96bd e559 eebe c359 1dbe 61a7 14be
00000130: 4e73 5dbe 049c a5be fb33 cd3d d3a7 013d
00000140: d153 fa3c f847 72be f16f 17bd 9f34 9abe
00000150: 306c 00be f268 463d 66c4 473d 5af7 163b
00000160: 9428 893e 486f b5be cafa ec3d 6101 a3bb
00000170: 5b92 92bd bd53 673e 4be9 0a3e 0ccb f03d
00000180: d261 86be 5251 b7be e03e 353d ff4d 08bf
00000190: 3dd4 0a3d 008a 0f3d 2753 953e e1b9 053e
000001a0: c156 01be febd d3bd b433 a1bc 808d 99bd
000001b0: 5709 b73d d9c8 24bc 186b cd3d a050 68be
000001c0: 1698 3fbc 16e3 c8bd 476f a23e dad2 3b3e
000001d0: f0ef f13d daaf c5be 4f53 283d 7f1b 1ebe
000001e0: 2e2a 5c3c 3aba c5bc 056f ae3c 35d9 07be
000001f0: f0df afbd e73b b3bd 8d74 d9be 18a8 67be
00000200: 6d65 80bb 4cc5 1f3e fa8a 9f3e fa3b a93d
00000210: 7243 66bd 5e24 643d 6fa1 90be 7190 0c3d
00000220: 3d1f 823d 8c3d 57be 3b8d 873e 26eb b63d
00000230: 7870 e73e b618 743e 1559 ab3e 597c 38bb
00000240: a707 ca3e 9603 fb3d e64f 5b3e a76e 02bc
00000250: 4832 0a3e bc35 38bb 5c66 d1bb 0dc5 6dbe
00000260: 9d47 c1bd c4ac cbbe 63de 19be b078 dcbd
00000270: c0f0 2e3e 5bcd 86bc 0bd0 093e a544 d6be
00000280: 3080 483d 896d dbbd 5b7d 7abd 4276 29be
00000290: c610 abbd 0d1f c4be d64f b83d bc0f 95bd
000002a0: 8e0c e23d a68f 283e f734 25be 666b 393e
000002b0: 1612 8f3d 0a14 4c3e e1f9 0ebc fc04 093b
000002c0: d971 373e a091 24ba 405e 303d afb3 b73d
000002d0: 4033 c8be 32fe 1dbe e639 89ba ee7b 933e
000002e0: 9008 183e 3ad4 96bd 874a 2a3d 421b 403e
000002f0: d38c e3bd 2ef5 203d 909d 883e 7a9a 97bc
00000300: 06c1 473e 5bb1 213e 367d 023e 4d3b bcbe
00000310: 6979 12be ef74 153d 6e1b 433e cc6e 923c
00000320: e19c a0bc 291f fa3d 4630 9e3e 63a3 f13e
00000330: 7eec bf3c a4a0 b13e 4e79 3dbe 2b9c a2bd
00000340: ca14 d1bc 976e 323d 80db 833c 773f 6e3e
00000350: 4554 b5bd 7ced 883e 19d8 debe e539 18be
00000360: 1352 4c3d d011 8abe 21f9 07be 6fae 4b3e
00000370: 4902 33bd 08d3 053e 1859 413d 5ecd 7abe
00000380: 0ccd 47be c9a0 7e3c dbbb afbc c8e4 01be
00000390: 0635 3dbe e57d 14bd f842 28bd afd7 c63d
000003a0: 3198 0fbe 62e3 66be 8ac0 a63e 9daf 923c
000003b0: 2298 b53b dc96 093d 9ed0 a0bc 1d1e c23c
000003c0: cdf3 d93d 3322 6e3e dffd 063e 3991 063f
000003d0: 8a84 c5bb 0997 aa3d 6e40 c63d db5e 213e
000003e0: 7ead b43e 49ac 35bc ee44 bfbd 3080 2dbe
000003f0: 14e2 423e 0c3b 843e c8aa 2e3e 9457 39be
-0.27918783 0.20710343 0.0741735 -0.33461264 -0.0013127797 -0.16425954 -0.11737859 -0.29170522
-0.19765642 -0.052331638 -0.36351392 -0.5355841 0.036934778 -0.033012398 -0.2819263 -0.21533073
0.05441079 -0.2039666 0.20461954 0.17716686 -0.011708839 -0.05838519 -0.16349263 -0.006484935
-0.1122278 -0.4387573 -0.08440241 -0.023455916 -0.26555425 -0.29321325 -0.41485134 -0.17900339
-0.22631067 0.15053119 0.0016807303 0.21281506 -0.38749605 -0.042051103 -0.0094375 0.07726445
0.041060388 0.078825705 -0.11079995 -0.23435079 -0.18631001 0.21908665 -0.24260233 -0.09923805
0.015606449 -0.21458805 -0.30169848 0.30331513 0.23010226 0.13803509 -0.23584807 -0.53054804
0.038809348 -0.24211517 0.102006264 -0.1290919 -0.3791759 -0.12772226 -0.106365785 -0.19834034
-0.16452132 0.10833228 0.025841098 0.12627614 -0.04831474 0.070684634 0.026639039 -0.120377555
-0.07355943 -0.4655296 -0.15366273 -0.14516975 -0.21626016 -0.32345593 0.1001968 0.03165419
0.030557545 -0.23660266 -0.03697199 -0.30118272 -0.1254127 0.048439927 0.048771285 0.0023035617
0.2678877 -0.35436463 0.11571272 -0.0049745296 -0.07156821 0.22590537 0.13565557 0.11757478
-0.26246506 -0.3580423 0.044249415 -0.5324401 0.033893812 0.035043716 0.29165003 0.13059188
-0.1263075 -0.103389725 -0.019677974 -0.07497692 0.08937328 -0.010057651 0.10030192 -0.22687006
-0.011693975 -0.09808938 0.31725523 0.18342152 0.118133426 -0.38610727 0.041095074 -0.15440176
0.013437791 -0.024136651 0.021293173 -0.13266452 -0.085876346 -0.0875166 -0.42471734 -0.22622716
-0.003918341 0.15602607 0.31160718 0.08263393 -0.056216665 0.055698745 -0.28248164 0.034317438
0.063536145 -0.21019572 0.26474938 0.0893157 0.45202994 0.23837551 0.33466402 -0.002815029
0.39458963 0.12256543 0.21417198 -0.007960952 0.13495743 -0.00281082 -0.006390376 -0.232197
-0.09437487 -0.39780247 -0.1502624 -0.10765207 0.17084026 -0.016455343 0.13458268 -0.41849247
0.048950374 -0.107142515 -0.061154705 -0.16549018 -0.08352809 -0.3830494 0.089996025 -0.07278392
0.11037551 0.16461048 -0.16133486 0.18107376 0.069858715 0.1992952 -0.008726568 0.0020907512
0.17914523 -0.00062778033 0.043058634 0.08969819 -0.391016 -0.15428999 -0.0010469526 0.28805488
0.14847016 -0.07364698 0.04157498 0.18760398 -0.111108445 0.03929632 0.2668271 -0.018506277
0.19507226 0.15790312 0.12743077 -0.36763993 -0.14304127 0.03648847 0.19053432 0.017875098
-0.019606056 0.122129746 0.30896205 0.47194967 0.023428198 0.34692872 -0.18503305 -0.07939943
-0.025522608 0.043562498 0.016095877 0.23266397 -0.08853964 0.26743686 -0.43524244 -0.14865835
0.04988296 -0.26966715 -0.13278629 0.1989076 -0.04370335 0.13068783 0.047204107 -0.24492404
-0.19511813 0.015541264 -0.021451881 -0.1268493 -0.18477258 -0.036252875 -0.04107949 0.09709107
-0.140229 -0.22547677 0.3256877 0.017906005 0.0055418173 0.033591136 -0.019630726 0.023696
0.106422044 0.23255233 0.13182782 0.5256534 -0.006027763 0.08329589 0.09680258 0.1575884
0.35288614 -0.011088439 -0.09339319 -0.16943431 0.19031554 0.258263 0.17057335 -0.18099815

conv_res1.conv0.4.weight f4 [32]
00000000: 33b4 503f df6e 443f 65c4 683f d3a1 793f
00000010: 3257 7f3f c6b4 983f 3075 943f dcaa 6e3f
00000020: 57c3 593f 32d6 7c3f 280f 9b3f 736c 903f
00000030: a9ca 883f 7d36 6b3f 8fba 613f 8263 9b3f
00000040: 7732 5a3f 270a 463f 012f 753f aa8b 853f
00000050: ed68 813f eb93 723f ecd7 a43f 882d 493f
00000060: 4e91 4a3f 9ecb 4e3f 2b26 803f c93c ab3f
00000070: fe0c 9c3f f440 643f 063d 6b3f 2878 2f3f
0.8152496 0.76731676 0.90924674 0.9751255 0.99742424 1.1930168 1.1598263 0.9322946
0.8506369 0.98764336 1.2114 1.1283096 1.0686847 0.9188002 0.8817529 1.2139742
0.85233253 0.7735924 0.9577485 1.0433247 1.0110146 0.94756955 1.2878394 0.785851
0.7912797 0.80779445 1.0011648 1.3377925 1.2191465 0.8916161 0.9188999 0.6854272

conv_res1.conv0.4.bias f4 [32]
00000000: fddc 23be d92f 26be b7bd 52be ad86 9fbe
00000010: 49d6 aebd 424d 8dbe 016d 8bbe bed4 a1be
00000020: bd32 7ebe 59d8 35be da05 15be f4a2 19be
00000030: f82b 88be 9306 b0be 519d 8cbe 318c 99be
00000040: b948 86be bba2 4bbe 9304 16be c14c 9ebe
00000050: eb83 14be 9d98 3abe 6345 98be 5e13 9fbe
00000060: 5c17 c1bc ca21 a0be f133 9abe 64e1 78be
00000070: 56ac 40be a275 6ebe 071e 30bd 2c0b f1bd
-0.16002269 -0.1622919 -0.20580183 -0.31157437 -0.085369654 -0.27598006 -0.272316 -0.31607622
-0.24824043 -0.17758311 -0.14553013 -0.15003568 -0.26596045 -0.34380016 -0.27463773 -0.2998977
-0.26227358 -0.19886295 -0.14650182 -0.30917934 -0.14503448 -0.1822228 -0.29740438 -0.31069463
-0.023570709 -0.3127578 -0.30117753 -0.2430473 -0.18815741 -0.23287061 -0.042997386 -0.11769709

conv_res1.conv0.4.running_mean f4 [32]
00000000: 83e2 04c0 4e1f 943d 132f c5be 0245 41bf
00000010: 281c 23c0 7210 0cbe 002f 13bf ae2c 5dbf
00000020: 230f dc3e 7f2a 35bf 2850 acbe 3775 06be
00000030: c8a1 a5be 0d4c f73e a6ec c1be 06e2 903e
00000040: d0a0 553f 534e f83f 2b04 eebd 035f cdbf
00000050: db7b b4bd f5b8 c33d eefc 8bbf 4325 d5bc
00000060: 43e1 b5bf acfe 513e e110 0b3f 22a9 28bf
00000070: fd95 45bf f4d5 07c0 784a ff3e 1334 71bf
-2.0763252 0.072325334 -0.38512477 -0.7549592 -2.5485935 -0.13678148 -0.5749359 -0.863963
0.42980298 -0.7076797 -0.33654904 -0.13130651 -0.32349992 0.4830021 -0.3787586 0.28297442
0.83448505 1.9398903 -0.11621889 -1.604462 -0.08812686 0.09556762 -1.0936563 -0.026018744
-1.420937 0.20507306 0.5432263 -0.65883076 -0.7718199 -2.1224337 0.49861503 -0.94220084

conv_res1.conv0.4.running_var f4 [32]
00000000: 1b2d 2940 0361 8040 7786 5d40 b194 7840
00000010: b6b4 4b40 4f4c 2a40 f93a 2d40 d8c3 ad40
00000020: 96e4 3940 0ab8 a240 6b45 b940 c30d ac40
00000030: 13aa 1e40 6a3e 9740 bc88 3c40 fa8b 3b40
00000040: 9094 5d40 40e0 0740 6d97 1140 5ff4 e040
00000050: c4d5 fa3f 4248 8540 0909 8040 5df0 4940
00000060: 13b2 2940 8d73 8f40 59ce bc40 c170 3d40
00000070: 761e a640 e125 fa40 9d3a 4040 6ba0 2540
2.643378 4.0118423 3.461332 3.8840754 3.1829047 2.6609075 2.7067244 5.4301567
2.9045768 5.0849657 5.789724 5.37668 2.4791305 4.726369 2.9458456 2.9304185
3.4621925 2.1230621 2.2748673 7.0298305 1.9596486 4.1650705 4.001103 3.1552956
2.6514938 4.4828553 5.900189 2.960007 5.1912184 7.817124 3.0035775 2.5879161
